HNeRV(
  (encoder): ConvNeXt(
    (downsample_layers): ModuleList(
      (0): Sequential(
        (0): Conv2d(3, 64, kernel_size=(5, 5), stride=(5, 5))
        (1): LayerNorm()
      )
      (1): Sequential(
        (0): LayerNorm()
        (1): Conv2d(64, 64, kernel_size=(4, 4), stride=(4, 4))
      )
      (2): Sequential(
        (0): LayerNorm()
        (1): Conv2d(64, 64, kernel_size=(4, 4), stride=(4, 4))
      )
      (3): Sequential(
        (0): LayerNorm()
        (1): Conv2d(64, 64, kernel_size=(2, 2), stride=(2, 2))
      )
      (4): Sequential(
        (0): LayerNorm()
        (1): Conv2d(64, 16, kernel_size=(2, 2), stride=(2, 2))
      )
    )
    (stages): ModuleList(
      (0): Sequential(
        (0): Block(
          (dwconv): Conv2d(64, 64, kernel_size=(7, 7), stride=(1, 1), padding=(3, 3), groups=64)
          (norm): LayerNorm()
          (pwconv1): Linear(in_features=64, out_features=256, bias=True)
          (act): GELU()
          (pwconv2): Linear(in_features=256, out_features=64, bias=True)
          (drop_path): Identity()
        )
      )
      (1): Sequential(
        (0): Block(
          (dwconv): Conv2d(64, 64, kernel_size=(7, 7), stride=(1, 1), padding=(3, 3), groups=64)
          (norm): LayerNorm()
          (pwconv1): Linear(in_features=64, out_features=256, bias=True)
          (act): GELU()
          (pwconv2): Linear(in_features=256, out_features=64, bias=True)
          (drop_path): Identity()
        )
      )
      (2): Sequential(
        (0): Block(
          (dwconv): Conv2d(64, 64, kernel_size=(7, 7), stride=(1, 1), padding=(3, 3), groups=64)
          (norm): LayerNorm()
          (pwconv1): Linear(in_features=64, out_features=256, bias=True)
          (act): GELU()
          (pwconv2): Linear(in_features=256, out_features=64, bias=True)
          (drop_path): Identity()
        )
      )
      (3): Sequential(
        (0): Block(
          (dwconv): Conv2d(64, 64, kernel_size=(7, 7), stride=(1, 1), padding=(3, 3), groups=64)
          (norm): LayerNorm()
          (pwconv1): Linear(in_features=64, out_features=256, bias=True)
          (act): GELU()
          (pwconv2): Linear(in_features=256, out_features=64, bias=True)
          (drop_path): Identity()
        )
      )
      (4): Sequential(
        (0): Block(
          (dwconv): Conv2d(16, 16, kernel_size=(7, 7), stride=(1, 1), padding=(3, 3), groups=16)
          (norm): LayerNorm()
          (pwconv1): Linear(in_features=16, out_features=64, bias=True)
          (act): GELU()
          (pwconv2): Linear(in_features=64, out_features=16, bias=True)
          (drop_path): Identity()
        )
      )
    )
    (b): Sequential(
      (0): double_conv0(
        (conv): Sequential(
          (0): MaxPool2d(kernel_size=4, stride=4, padding=0, dilation=1, ceil_mode=False)
          (1): Conv2d(64, 64, kernel_size=(3, 3), stride=(1, 1), padding=(1, 1))
          (2): Block(
            (dwconv): Conv2d(64, 64, kernel_size=(7, 7), stride=(1, 1), padding=(3, 3), groups=64)
            (norm): LayerNorm()
            (pwconv1): Linear(in_features=64, out_features=256, bias=True)
            (act): GELU()
            (pwconv2): Linear(in_features=256, out_features=64, bias=True)
            (drop_path): Identity()
          )
        )
      )
      (1): double_conv0(
        (conv): Sequential(
          (0): MaxPool2d(kernel_size=4, stride=4, padding=0, dilation=1, ceil_mode=False)
          (1): Conv2d(64, 64, kernel_size=(3, 3), stride=(1, 1), padding=(1, 1))
          (2): Block(
            (dwconv): Conv2d(64, 64, kernel_size=(7, 7), stride=(1, 1), padding=(3, 3), groups=64)
            (norm): LayerNorm()
            (pwconv1): Linear(in_features=64, out_features=256, bias=True)
            (act): GELU()
            (pwconv2): Linear(in_features=256, out_features=64, bias=True)
            (drop_path): Identity()
          )
        )
      )
      (2): Conv2d(64, 8, kernel_size=(3, 3), stride=(1, 1), padding=(1, 1))
    )
    (cnerv): CNeRVBlock(
      (vq): VectorQuantize(
        (project_in): Identity()
        (project_out): Identity()
        (_codebook): EuclideanCodebook(
          (fp_pool): FeaturePool()
        )
        (codebook): EuclideanCodebook(
          (fp_pool): FeaturePool()
        )
      )
      (up): Sequential(
        (0): Upsample(size=4, mode=nearest)
        (1): Conv2d(8, 8, kernel_size=(3, 3), stride=(1, 1), padding=(1, 1))
        (2): Upsample(size=4, mode=nearest)
        (3): Conv2d(8, 8, kernel_size=(3, 3), stride=(1, 1), padding=(1, 1))
      )
    )
  )
  (decoder): ModuleList(
    (0): NeRVBlock(
      (conv): DownConv(
        (downconv): Conv2d(16, 67, kernel_size=(1, 1), stride=(1, 1))
      )
      (norm): Identity()
      (act): GELU()
    )
    (1): NeRVBlock(
      (conv): UpConv(
        (upconv): Sequential(
          (0): Conv2d(67, 1400, kernel_size=(1, 1), stride=(1, 1))
          (1): PixelShuffle(upscale_factor=5)
        )
      )
      (norm): Identity()
      (act): GELU()
    )
    (2): NeRVBlock(
      (conv): UpConv(
        (upconv): Sequential(
          (0): Conv2d(56, 752, kernel_size=(3, 3), stride=(1, 1), padding=(1, 1))
          (1): PixelShuffle(upscale_factor=4)
        )
      )
      (norm): Identity()
      (act): GELU()
    )
    (3): NeRVBlock(
      (conv): UpConv(
        (upconv): Sequential(
          (0): Conv2d(47, 624, kernel_size=(5, 5), stride=(1, 1), padding=(2, 2))
          (1): PixelShuffle(upscale_factor=4)
        )
      )
      (norm): Identity()
      (act): GELU()
    )
    (4): NeRVBlock(
      (conv): UpConv(
        (upconv): Sequential(
          (0): Conv2d(39, 156, kernel_size=(5, 5), stride=(1, 1), padding=(2, 2))
          (1): PixelShuffle(upscale_factor=2)
        )
      )
      (norm): Identity()
      (act): GELU()
    )
    (5): NeRVBlock(
      (conv): UpConv(
        (upconv): Sequential(
          (0): Conv2d(39, 156, kernel_size=(5, 5), stride=(1, 1), padding=(2, 2))
          (1): PixelShuffle(upscale_factor=2)
        )
      )
      (norm): Identity()
      (act): GELU()
      (vq): RQVAE(
        (conv): Sequential(
          (0): InstanceNorm2d(47, eps=1e-05, momentum=0.1, affine=False, track_running_stats=False)
          (1): Conv2d(47, 39, kernel_size=(3, 3), stride=(1, 1), padding=(1, 1))
        )
      )
    )
  )
  (head_layer): Conv2d(39, 3, kernel_size=(3, 3), stride=(1, 1), padding=(1, 1))
)
Encoder_0.46M_Decoder_1.54M_Total_1.55M
[2024/02/18 20:19:04] Rank:None, Epoch[1/300], Step [1/66], lr:2.00e-04 pred_PSNR: 11.52 perplexity:235.06 lvq:9.47e-04 L2:7.05e-02 usage:0.4707 total usage:0.4707
[2024/02/18 20:19:09] Rank:None, Epoch[1/300], Step [51/66], lr:2.45e-04 pred_PSNR: 15.67 perplexity:105.85 lvq:1.70e-03 L2:1.30e-02 usage:0.2246 total usage:0.9980
…
